{"class_name": "Sequential", "keras_version": "2.0.6", "config": [{"class_name": "Embedding", "config": {"embeddings_initializer": {"class_name": "RandomUniform", "config": {"maxval": 0.05, "seed": null, "minval": -0.05}}, "name": "embedding_1", "dtype": "float32", "output_dim": 50, "trainable": true, "embeddings_regularizer": null, "input_dim": 5000, "mask_zero": false, "embeddings_constraint": null, "batch_input_shape": [null, 400], "activity_regularizer": null, "input_length": 400}}, {"class_name": "Dropout", "config": {"rate": 0.2, "trainable": true, "name": "dropout_1"}}, {"class_name": "Conv1D", "config": {"kernel_constraint": null, "kernel_initializer": {"class_name": "VarianceScaling", "config": {"distribution": "uniform", "scale": 1.0, "seed": null, "mode": "fan_avg"}}, "name": "conv1d_1", "bias_regularizer": null, "bias_constraint": null, "activation": "relu", "trainable": true, "padding": "valid", "strides": [1], "dilation_rate": [1], "kernel_regularizer": null, "filters": 250, "bias_initializer": {"class_name": "Zeros", "config": {}}, "use_bias": true, "activity_regularizer": null, "kernel_size": [3]}}, {"class_name": "GlobalMaxPooling1D", "config": {"trainable": true, "name": "global_max_pooling1d_1"}}, {"class_name": "Dense", "config": {"kernel_initializer": {"class_name": "VarianceScaling", "config": {"distribution": "uniform", "scale": 1.0, "seed": null, "mode": "fan_avg"}}, "name": "dense_1", "kernel_constraint": null, "bias_regularizer": null, "bias_constraint": null, "activation": "linear", "trainable": true, "kernel_regularizer": null, "bias_initializer": {"class_name": "Zeros", "config": {}}, "units": 250, "use_bias": true, "activity_regularizer": null}}, {"class_name": "Dropout", "config": {"rate": 0.2, "trainable": true, "name": "dropout_2"}}, {"class_name": "Activation", "config": {"activation": "relu", "trainable": true, "name": "activation_1"}}, {"class_name": "Dense", "config": {"kernel_initializer": {"class_name": "VarianceScaling", "config": {"distribution": "uniform", "scale": 1.0, "seed": null, "mode": "fan_avg"}}, "name": "dense_2", "kernel_constraint": null, "bias_regularizer": null, "bias_constraint": null, "activation": "linear", "trainable": true, "kernel_regularizer": null, "bias_initializer": {"class_name": "Zeros", "config": {}}, "units": 1, "use_bias": true, "activity_regularizer": null}}, {"class_name": "Activation", "config": {"activation": "sigmoid", "trainable": true, "name": "activation_2"}}], "backend": "tensorflow"}